model/RDIAN-main/params/best.pth (torch, 920357 bytes, 108 tensors)

conv1.0.weight f4 [16, 1, 3, 3]
0	0x3cddc815	0.027072946
1	0x3c884a86	0.016637098
2	0x3b914fd9	0.0044345674
3	0x3c77cac1	0.015124024
4	0xbc055b7d	-0.008139488
5	0xbc543763	-0.012952658
6	0x3c263fc8	0.010147043
7	0xbc19674b	-0.009363006
8	0xbcc0c3a7	-0.023530794
9	0x3ad8c729	0.0016538847
10	0xbc7a74b0	-0.0152866095
11	0xbccc8e7f	-0.024970291
12	0x3cdf024a	0.027222771
13	0xbc44dad3	-0.012015062
14	0xba898631	-0.0010492263
15	0x3d2a6344	0.041598573
16	0xb9a25654	-0.00030963367
17	0xbb96f0ff	-0.0046063657
18	0xbca29430	-0.019846052
19	0xbc962941	-0.018330218
20	0xbc5c1381	-0.0134323845
21	0x3c285582	0.010274293
22	0xbb6f4aaa	-0.003651301
23	0x3c414ae9	0.011797645
24	0x3ccd213c	0.025040261
25	0x3c767dbe	0.015044628
26	0x3cf574dc	0.02996295
27	0x3cbb782c	0.02288445
28	0xbba334a5	-0.004980641
29	0xbcb8f82d	-0.022579277
30	0x3cb63741	0.022243144
31	0xbc82051b	-0.015871575
32	0xbc9c576a	-0.019084651
33	0x3cbb5612	0.02286819
34	0xbc586129	-0.013206759
35	0xbcdb803f	-0.026794551
36	0xbcaafb3d	-0.020871753
37	0xbc565363	-0.013081404
38	0xbc589fab	-0.013221662
39	0xbc2e72cc	-0.010647487
40	0x3bad48dc	0.0052882265
41	0xbc827fce	-0.015930083
42	0x3cd9de9e	0.02659541
43	0x3d52ea05	0.05149271
44	0x3ccd34e6	0.025049638
45	0xbc77db0a	-0.015127907
46	0xbc8ddf77	-0.01731847
47	0xbcc81e50	-0.024428517
48	0x3d65a0f1	0.05606169
49	0x3cdc6c31	0.026907058
50	0xbd183851	-0.037163083
51	0x3d590bbb	0.052989703
52	0xbc1d268b	-0.009591709
53	0xbcf9ccba	-0.030493129
54	0xbcd3b0cd	-0.025841141
55	0x3ccd6f5c	0.025077514
56	0x3d79d1e5	0.060991187
57	0xbce6e52d	-0.028185451
58	0x3c6def5a	0.014522398
59	0x3cf6a8a5	0.030109713
60	0xbcc74dd7	-0.02432911
61	0xbd1a7602	-0.037710197
62	0xbc7c8d2d	-0.015414518
63	0xbacdff3f	-0.0015716328
64	0x3d371f16	0.04470738
65	0xbc6acd02	-0.014331104
66	0x3cf7ffd0	0.030273348
67	0x3d5127c5	0.051063318
68	0xbc005765	-0.0078333365
69	0xbca58f99	-0.020210074
70	0xbd29601f	-0.041351434
71	0xbd3b10fb	-0.04567049
72	0xbcd87e08	-0.026427284
73	0xbcf1ea42	-0.029530648
74	0xbd851ff2	-0.06500234
75	0x3ba3a064	0.0049934853
76	0x3c539520	0.012913972
77	0xbc38ef29	-0.011287489
78	0x3b59f8a0	0.0033259764
79	0x3bfa2bb8	0.007634606
80	0xbcbc4c0e	-0.022985484
81	0xbd4ce530	-0.050023258
82	0xbbc9060f	-0.0061347554
83	0xbb16b0c1	-0.0022993537
84	0xbc07caa5	-0.00828806
85	0x3c1f2861	0.009714217
86	0x3cd3e31f	0.025865136
87	0xbc6354fc	-0.013875242
88	0x3b7d3aba	0.003863974
89	0x3cc5f285	0.024163494
90	0x3d7e3bb4	0.062068656
91	0x3cb14f6e	0.02164432
92	0x3cb07bcb	0.021543404
93	0x3bcf0ee9	0.006318916
94	0xbc44869c	-0.011994984
95	0xbcd122f6	-0.025529366
96	0xbbe3842a	-0.0069432454
97	0xbcd56479	-0.026048886
98	0xbd3b3490	-0.045704424
99	0xbcfafe55	-0.030638853
100	0xbcb18350	-0.02166906
101	0xbb7efd6b	-0.0038908373
102	0xbc9df821	-0.019283356
103	0xbc9c6a19	-0.01909356
104	0x3c4717fe	0.012151716
105	0x3b363758	0.0027803984
106	0x3cb0c68c	0.02157905
107	0x3d0241be	0.031800978
108	0x3d18aa7f	0.037271973
109	0x3c5627a3	0.013070974
110	0xbc935c40	-0.017988324
111	0x3cc4b651	0.024012716
112	0x3abeff91	0.0014572014
113	0xbcaf6bbd	-0.021413678
114	0x3c347443	0.011014047
115	0xbc558b85	-0.013033752
116	0xbd2b58a9	-0.0418326
117	0xbcaeb7d7	-0.021327896
118	0x3ceb837c	0.02874922
119	0xbc641dcd	-0.013923121
120	0xbd0aba3e	-0.03386902
121	0x3d2f1a0c	0.04274945
122	0x3b36ed4d	0.0027912438
123	0xbc22c973	-0.009935725
124	0x3c58af6d	0.0132254185
125	0xbc18772b	-0.009305756
126	0xbbbae6ff	-0.0057038064
127	0x3d3c93ab	0.046039265
128	0x3d0f9688	0.035055667
129	0x3c723bcf	0.014784767
130	0xbb73d026	-0.0037202924
131	0x3c129669	0.008946993
132	0x3c3e507c	0.011615869
133	0xbc8beebb	-0.017081609
134	0xbbb48f28	-0.0055102296
135	0xbcab30d9	-0.020897316
136	0xbcc3bcfc	-0.023893826
137	0xbd338751	-0.04383022
138	0xbbdaf73c	-0.0066823047
139	0x3c876909	0.016529577
140	0xbc6c8643	-0.014436307
141	0x3c481833	0.012212801
142	0x3d3622cd	0.044466782
143	0x3cea5bdb	0.028608253

conv1.1.weight f4 [16]
0	0x3efbbb1e	0.49166197
1	0x3f197a58	0.59952307
2	0x3f0f6d15	0.5602582
3	0x3f0bf074	0.5466378
4	0x3f14cfdc	0.5812967
5	0x3f32636e	0.6968297
6	0x3f2b8394	0.6699765
7	0x3f356ccd	0.7086914
8	0x3f28dbb0	0.65960217
9	0x3f12f64b	0.57407063
10	0x3f3e64f9	0.7437282
11	0x3f13c725	0.57725745
12	0x3f289e29	0.65866333
13	0x3f1d9636	0.6155733
14	0x3f16160e	0.586274
15	0x3f2d3605	0.6766055

conv1.1.bias f4 [16]
0	0xbe21e66a	-0.15810552
1	0xbe754f6d	-0.2395608
2	0xbefa2b51	-0.48861173
3	0xbdcdf8fe	-0.10057257
4	0xbc94c6ba	-0.018161166
5	0x3f0312eb	0.5120074
6	0x3d2bba35	0.041925628
7	0xbe89bfc6	-0.26904124
8	0xbf58640d	-0.84527665
9	0xbf284d26	-0.6574272
10	0x3fdd36bc	1.7282329
11	0xbcfd525d	-0.030923063
12	0xbf3b2f16	-0.7311872
13	0xbcfadcca	-0.030622859
14	0x3bcb5dc5	0.0062062466
15	0x3fb5ba01	1.4197389

conv1.1.running_mean f4 [16]
0	0x3c14ca34	0.009081412
1	0x3bbd744e	0.005781687
2	0x3c8e7393	0.017389094
3	0xbc8537db	-0.016261986
4	0x3c8628a9	0.01637681
5	0x3a79b021	0.00095248414
6	0xb9dfd783	-0.00042694443
7	0xbb141d59	-0.00226005
8	0xbd72bfe2	-0.059265025
9	0xbc01931b	-0.007908608
10	0xbb194652	-0.0023387861
11	0xbc499b84	-0.012305144
12	0xbb67196a	-0.003526295
13	0xb99e130b	-0.00030150297
14	0x3d2255dc	0.039632663
15	0xbb6b3d14	-0.003589456

conv1.1.running_var f4 [16]
0	0x37b1c311	2.119088e-05
1	0x3755d170	1.2744553e-05
2	0x3888c166	6.5210086e-05
3	0x387589b8	5.8540812e-05
4	0x3889eab9	6.5763896e-05
5	0x376f11ce	1.4249656e-05
6	0x37a2c9e9	1.9405927e-05
7	0x37b54ba8	2.1612112e-05
8	0x3a376ae1	0.0006996822
9	0x37a449f1	1.9584755e-05
10	0x379e930a	1.8903538e-05
11	0x382a0830	4.0538784e-05
12	0x376d3895	1.4139475e-05
13	0x364adaf9	3.0227804e-06
14	0x39a42c3e	0.0003131348
15	0x3799c927	1.833269e-05

conv2.0.weight f4 [32, 16, 3, 3]
0	0xbc01d269	-0.007923701
1	0xbc09d43f	-0.00841242
2	0xbb897118	-0.00419439
3	0xbbd9af66	-0.0066432236
4	0xbbb5465b	-0.0055320687
5	0x3b0fdf93	0.002195333
6	0xbc4426d7	-0.011972151
7	0xbbfdfa12	-0.007750758
8	0x3a9996de	0.0011717936
9	0xbca18140	-0.019714952
10	0xbc8b3d8f	-0.016997127
11	0xbc14180c	-0.009038936
12	0xbca4cf67	-0.020118428
13	0xbc8f0328	-0.01745756
14	0xbc1e299b	-0.009653474
15	0xbc0bb24a	-0.008526394
16	0xbc3119c9	-0.01080937
17	0xbb87cddc	-0.0041444134
18	0x3c545689	0.012960085
19	0x3c474451	0.012162284
20	0x3c6ef70f	0.014585271
21	0x3c31c4c4	0.010850135
22	0x3c4eca66	0.012621498
23	0x3c61ae31	0.013774441
24	0x3cba45fe	0.022738453
25	0x3ca43e14	0.020049132
26	0x3c9f1b45	0.019422183
27	0x3b635c28	0.003469238
28	0xbb576cb2	-0.0032871184
29	0xbc506a4f	-0.012720658
30	0x3aa7d409	0.001280428
31	0xbb573836	-0.00328399
32	0xbc0f70b8	-0.008754902
33	0x3a6aac67	0.00089520816
34	0xba898acc	-0.0010493635
35	0xb99586a3	-0.00028519807
36	0x3cdb1530	0.026743501
37	0x3d06323a	0.032762744
38	0x3d028ca0	0.03187239
39	0x3cdc810a	0.026917
40	0x3d06e87a	0.03293655
41	0x3cdd1fb3	0.026992654
42	0x3cd5a23c	0.026078336
43	0x3cf90cf9	0.030401694
44	0x3cc04395	0.023469726
45	0x3ce1d515	0.027567426
46	0x3bf7e999	0.007565689
47	0xba700f9f	-0.0009157601
48	0x3c9980e4	0.018738218
49	0x3cdddd4c	0.027083062
50	0x3cc6930c	0.02424004
51	0x3c20a87c	0.009805795
52	0x3d01458a	0.03156046
53	0x3d51fda2	0.051267274
54	0xbcc3941d	-0.023874337
55	0x3c3190e4	0.010837767
56	0x398ffb8a	0.00027462497
57	0xbcf0eba0	-0.02940923
58	0x3bab75da	0.005232555
59	0xbc3ca234	-0.011513282
60	0xbbb205a4	-0.0054328013
61	0x3c5f20cb	0.013618658
62	0xbc054861	-0.008134932
63	0xbca36cb7	-0.0199493
64	0xbcd41847	-0.025890483
65	0xbc658c7f	-0.014010548
66	0xbcb06f52	-0.021537457
67	0xbd007cd1	-0.031369034
68	0xbc4f9371	-0.01266943
69	0xbd163e2d	-0.03668039
70	0xbcf7d541	-0.030253055
71	0xbccc414d	-0.024933482
72	0xbc41044f	-0.011780812
73	0xbc6ec3ed	-0.0145730795
74	0x3c27715d	0.010219899
75	0xbcd5e6a1	-0.026110949
76	0xbce62d15	-0.028097669
77	0xbc84111c	-0.01612144
78	0xbc115f0b	-0.008872758
79	0xbc3d2ad4	-0.011545856
80	0x3c8b7bb3	0.017026758
81	0xbd552afd	-0.05204295
82	0xbc3dacac	-0.011576813
83	0xbd0bead9	-0.034159515
84	0xbd4e8a0a	-0.050424613
85	0xbcf879ce	-0.030331519
86	0xbd6c8770	-0.05774635
87	0xbd4c8ca3	-0.04993881
88	0xbc6a3335	-0.014294435
89	0xbd6f4f2a	-0.058425106
90	0xbc9f375c	-0.019435577
91	0xbd1f1f4b	-0.038848203
92	0xbcf3ffc2	-0.02978504
93	0xbd3b0315	-0.045657236
94	0xbd6bc63f	-0.05756211
95	0xbd031cdf	-0.032009955
96	0xbd3605ce	-0.04443913
97	0xbd5997e2	-0.053123362
98	0xbd02afe9	-0.031906042
99	0xbbaa8758	-0.0052041225
100	0xba162ed9	-0.0005729027
101	0xbbbdaaa0	-0.0057881624
102	0xbc4dce93	-0.012561458
103	0xbbc6aeda	-0.0060633244
104	0xbc4f2616	-0.012643358
105	0xbc04df5b	-0.008109893
106	0xbb365d49	-0.0027826598
107	0xbc389f73	-0.011268484
108	0xbd228672	-0.039679
109	0xbd2e3de6	-0.0425395
110	0x3b65dff7	0.003507612
111	0xbb51b217	-0.003199702
112	0xbc84edbc	-0.016226642
113	0x3c6d61b0	0.014488623
114	0xbc477ba4	-0.012175474
115	0xbc177fd9	-0.00924679
116	0x3b93806b	0.0045013926
117	0xbc8251d8	-0.015908167
118	0x3aa96c24	0.0012925905
119	0xbc1f7bda	-0.009734118
120	0xbbcaa990	-0.006184764
121	0x3ba51df3	0.0050389706
122	0x3c62659b	0.01381817
123	0xbc73a2fa	-0.0148704
124	0x3c387754	0.011258919
125	0x3c165c45	0.009177272
126	0x3a6d1187	0.00090434443
127	0x3af0f4c8	0.0018383497
128	0x3b931436	0.0044884933
129	0xbba79b25	-0.00511493
130	0xbb9fc7c4	-0.004876109
131	0xb986a6be	-0.00025682704
132	0x3b8c0ffc	0.0042743664
133	0x3bf35316	0.007425676
134	0x3c3f43d5	0.011673887
135	0x3c532d0d	0.012889159
136	0x3c7d20fc	0.015449759
137	0x3c5165ad	0.012780589
138	0x3c39efbc	0.011348661
139	0x3c66e48d	0.014092577
140	0x3af9efa0	0.0019068606
141	0xbbe531b8	-0.0069944523
142	0xbb0e693c	-0.0021730205
143	0xbc15edd6	-0.009150943
144	0x3ca48055	0.020080725
145	0x3c745f81	0.014915348
146	0xbb75aef7	-0.003748832
147	0x3c61ff72	0.013793813
148	0x3c422684	0.011850003
149	0x39b27cd0	0.00034043798
150	0xbc9ed939	-0.01939069
151	0xbc056a10	-0.008142963
152	0xbca4659a	-0.020067979
153	0xbcb77349	-0.02239384
154	0xbc88518e	-0.01664045
155	0xbcb79dc6	-0.0224141
156	0xbce3b015	-0.027793923
157	0xbc8c128c	-0.017098688
158	0xbcd34baf	-0.025792925
159	0xbc6145be	-0.013749538
160	0xbb83ac75	-0.004018361
161	0xbba86be7	-0.005139816
162	0xbcb554a9	-0.022135096
163	0xbcaef931	-0.021359058
164	0xbc5ff045	-0.013668125
165	0xbce46455	-0.027879873
166	0xbcd65230	-0.026162237
167	0xbc90e6f8	-0.01768826
168	0xbbd74639	-0.0065696505
169	0xbb39bda1	-0.0028341787
170	0x3b65416d	0.0034981624
171	0xbc1de91b	-0.009638096
172	0x3bc1c8ba	0.005913821
173	0x392dc822	0.00016573121
174	0xbc3a3375	-0.011364807
175	0x3c553776	0.013013711
176	0xbb0728d4	-0.00206237
177	0xbc366812	-0.011133211
178	0x3a6cea56	0.00090376043
179	0xbc1dd78d	-0.009633911
180	0x3b569e3c	0.0032748124
181	0x3c08ba96	0.008345267
182	0xbc10130e	-0.0087936055
183	0xbb98255f	-0.004643127
184	0x3b243f49	0.0025062135
185	0xbbdb46fa	-0.0066918107
186	0xbd0da947	-0.034585264
187	0xbcc1378d	-0.023586059
188	0xbc3ab05d	-0.011394587
189	0xbae060bc	-0.0017118673
190	0x3db3d513	0.08780875
191	0x3c5ea911	0.013590113
192	0xbc7c484f	-0.015398099
193	0x3d785933	0.060631942
194	0x3b729a01	0.0037018063
195	0xbbc101f4	-0.0058901254
196	0x3c01705f	0.0079003265
197	0xbb71033d	-0.0036775612
198	0x3c286709	0.010278472
199	0xbc89bdc4	-0.01681412
200	0x3cd5b14b	0.026085516
201	0x3cc4a69d	0.024005229
202	0xbd166ec0	-0.036726713
203	0xbd32e632	-0.043676563
204	0x3d229041	0.039688352
205	0xbc438354	-0.0119331665
206	0xbcf1faf7	-0.029538615
207	0x3d5e8aca	0.05433158
208	0x3d136801	0.035987858
209	0x3b9596b4	0.0045650844
210	0xbb44afb8	-0.0030011963
211	0xbcdd93e2	-0.027048055
212	0xbd272a55	-0.040811855
213	0x3baafea1	0.0052183424
214	0x3c2ec5f8	0.010667317
215	0xbc6cbff6	-0.014450064
216	0x3c32e3d7	0.010918579
217	0x3b59b438	0.003321899
218	0x3bd11e0a	0.0063817548
219	0xbd034323	-0.03204645
220	0xbcfe6995	-0.031056205
221	0xbcb159fe	-0.021649357
222	0xba82a26e	-0.0009966621
223	0x394eb8ab	0.00019714485
224	0x3c10da6e	0.00884114
225	0xb97c7210	-0.00024075084
226	0xbc77f02e	-0.015132947
227	0xbce77bdf	-0.028257309
228	0xbcab687f	-0.020923851
229	0xbce4accf	-0.027914433
230	0xbd0d4afd	-0.034495343
231	0xbd1a3faa	-0.03765837
232	0x3b9f8574	0.004868204
233	0xbbdfbd7c	-0.006828008
234	0xbca8f33b	-0.020623794
235	0xb9180ff2	-0.0001450179
236	0xbc232e47	-0.009959764
237	0xbd0aba7e	-0.03386926
238	0x3c97b43f	0.018518565
239	0xbc13bd02	-0.009017231
240	0xbbe035a9	-0.0068423343
241	0x3ca0b996	0.019619744
242	0xbcb7e1f0	-0.022446603
243	0x3b855b99	0.004069757
244	0xbc984d88	-0.018591657
245	0xbc045419	-0.008076691
246	0x3b4c22f8	0.0031148773
247	0xbc219fe7	-0.009864784
248	0x3bb98305	0.0056613707
249	0xbc6cda61	-0.014456362
250	0xbc4d886a	-0.012544731
251	0xbb30f7b1	-0.0027003104
252	0x3c26b98f	0.010176077
253	0xbcfc10aa	-0.030769665
254	0xbc5d562c	-0.0135093145
255	0x3bc64da1	0.0060517346

conv2.1.weight f4 [32]
0	0x3f122bac	0.5709789
1	0x3f2974ea	0.6619402
2	0x3f0c7e31	0.5488005
3	0x3f17fbc5	0.59368545
4	0x3f12e563	0.57381266
5	0x3f1df628	0.6170373
6	0x3f1cdcb9	0.61274296
7	0x3f0beacb	0.5465514
8	0x3f08a62b	0.5337855
9	0x3f0acbbc	0.54217124
10	0x3f036b52	0.5133563
11	0x3f0a6a24	0.5406821
12	0x3f1211cb	0.570584
13	0x3f1059ee	0.5638722
14	0x3f0a3509	0.53987175
15	0x3f166331	0.58745104
16	0x3f16f6a4	0.58970094
17	0x3efff3ba	0.49990636
18	0x3f0920d6	0.5356573
19	0x3f23f6f1	0.6404868
20	0x3f0bb103	0.54566973
21	0x3f0f174e	0.55894935
22	0x3f0de596	0.55428445
23	0x3f1dfbcb	0.6171233
24	0x3f1be3d1	0.60894495
25	0x3f0fd59f	0.56185335
26	0x3ef1a32c	0.47194803
27	0x3f0f5489	0.55988365
28	0x3f0ee9b7	0.5582537
29	0x3f1e9862	0.6195127
30	0x3f0ac21b	0.5420243
31	0x3f092758	0.5357566

conv2.1.bias f4 [32]
0	0x3e3d1596	0.18465266
1	0xbf2fcb37	-0.68669456
2	0xbe0a9e4e	-0.13536951
3	0xbe4609c9	-0.1933967
4	0xbd793ad2	-0.06084711
5	0xbec12499	-0.37723234
6	0xbe8d3c2f	-0.2758498
7	0x3fa30e05	1.2738653
8	0xbd2bd4af	-0.041950878
9	0xbf19c65d	-0.60068303
10	0xbd5865f3	-0.0528316
11	0xbdb431e2	-0.08798577
12	0xbd85d8c5	-0.06535486
13	0x3b4cb524	0.0031235898
14	0xbe077b57	-0.13230644
15	0x3da60186	0.08105759
16	0xbdafcb2c	-0.08583674
17	0x3fa21d38	1.2665167
18	0x3e9e2eed	0.30895177
19	0xbd712bd6	-0.058879696
20	0xbda90c85	-0.08254341
21	0xbde4e24f	-0.111759774
22	0xbd522c8f	-0.051312026
23	0xbedf8a49	-0.4366019
24	0xbe25a8ac	-0.16177624
25	0xbd6af413	-0.057361674
26	0x3f3e88c4	0.7442744
27	0xbdb32f6c	-0.087492794
28	0xbb0bdf44	-0.0021342793
29	0xbd8988ed	-0.0671557
30	0xbda8c494	-0.08240619
31	0x4002fc67	2.0466554

conv2.1.running_mean f4 [32]
0	0xbf1a9271	-0.603797
1	0xbe078bd1	-0.1323693
2	0x3e15b754	0.14620715
3	0xbf1393e7	-0.57647556
4	0x3f23c7dd	0.6397684
5	0xbdc7f037	-0.09762614
6	0x3ef37fe9	0.47558525
7	0x3d7ab553	0.06120808
8	0xbdfba41b	-0.1228716
9	0x3e2efa2b	0.17087619
10	0x3c6fe019	0.014640831
11	0x3f74bbe9	0.9559923
12	0xbcdc6303	-0.026902681
13	0xbd9bd5da	-0.07609148
14	0x3d6a97b7	0.057273593
15	0x3eb272fb	0.34853348
16	0xbe08e306	-0.13367853
17	0xbeaaa080	-0.33325577
18	0xbe902976	-0.28156632
19	0xbf5b758b	-0.8572623
20	0xbd349b11	-0.044093195
21	0xbe41cbec	-0.18925446
22	0xbf0ec1fd	-0.5576475
23	0x3e8c29dd	0.2737569
24	0xbd0f4e18	-0.034986585
25	0xbdb25bd1	-0.08708919
26	0xbe41b8c6	-0.18918142
27	0xbe9d062c	-0.3066877
28	0x3eafbd87	0.34324285
29	0xbf4689e4	-0.77554154
30	0x3ed94820	0.4243784
31	0xbe6b0ac0	-0.2295332

conv2.1.running_var f4 [32]
0	0x3dfd4e3f	0.1236844
1	0x3c8bfb5b	0.017087629
2	0x3dc0f095	0.094208874
3	0x3d3dde23	0.046354424
4	0x3d955a64	0.07292631
5	0x3d93da26	0.07219343
6	0x3dab41a4	0.08362129
7	0x3e2e26ce	0.1700699
8	0x3d9a8c87	0.07546335
9	0x3e3244d5	0.1740907
10	0x3d0bbf3e	0.03411793
11	0x3dd8ba3f	0.105823986
12	0x3e43ae86	0.19109544
13	0x3d1fbbc2	0.03899742
14	0x3e1c29b0	0.15250278
15	0x3de8c904	0.11366466
16	0x3d3058aa	0.043053307
17	0x3dcd7cc8	0.10033566
18	0x3d9f9198	0.07791442
19	0x3d8c9757	0.06864803
20	0x3d8f21d1	0.06988872
21	0x3d83751d	0.06418822
22	0x3df01e34	0.11724511
23	0x3d03a4aa	0.032139458
24	0x3cce9669	0.025218206
25	0x3dd02a29	0.101642914
26	0x3e175eb9	0.14782228
27	0x3dd2ff3c	0.10302588
28	0x3d934bc1	0.07192183
29	0x3dc6019c	0.09668276
30	0x3d9b047c	0.07569215
31	0x3e269186	0.1626645

residual_block0.0.layer1.0.weight f4 [16, 32, 1, 1]
0	0x2f17eef9	1.381827e-10
1	0x987b368b	-3.2468527e-24
2	0x957afeda	-5.068814e-26
3	0xa5b5ab98	-3.1514771e-16
4	0x91846a4e	-2.0891443e-28
5	0x0bea6e3f	9.02994e-32
6	0x0d509edd	6.4286173e-31
7	0x0a1acb90	7.453116e-33
8	0x09850139	3.2019735e-33
9	0x8a977863	-1.4586056e-32
10	0x0b959308	5.761394e-32
11	0x97e5ea89	-1.4857983e-24
12	0x958a1731	-5.5774346e-26
13	0x0acd63dc	1.9778345e-32
14	0x0b0bd215	2.6928474e-32
15	0x974343c6	-6.309344e-25
16	0x9f43f204	-4.1493047e-20
17	0x0a835156	1.2645436e-32
18	0x9d0fb9b0	-1.902189e-21
19	0x09a411b0	3.9498197e-33
20	0x0b5eee42	4.293489e-32
21	0x1ed5243f	2.2567243e-20
22	0x88aec13f	-1.0517676e-33
23	0x10e06c45	8.851924e-29
24	0x29e3f6a5	1.0123611e-13
25	0x0b2b73f0	3.3020624e-32
26	0x8aa09c55	-1.5466245e-32
27	0x88c84769	-1.2053851e-33
28	0xaa78da59	-2.210258e-13
29	0x2a3f30d7	1.6981153e-13
30	0x17cea361	1.3353681e-24
31	0x225f88fb	3.0294652e-18
32	0x3b8c83ec	0.0042881873
33	0xbd252327	-0.040316727
34	0x3c679f38	0.014137082
35	0x3bf6004a	0.0075073587
36	0x3c7612b5	0.015019109
37	0x3d48fb5c	0.04906784
38	0x3c23e3d3	0.010003048
39	0x3beb5635	0.0071819075
40	0x3c84984d	0.016185904
41	0xbc84c418	-0.016206786
42	0x3cc5025e	0.02404898
43	0xba438ef2	-0.000745996
44	0x3c8794a6	0.016550373
45	0x3c9878e9	0.018612342
46	0x3c49e1fd	0.012321946
47	0xbc80df67	-0.015731527
48	0xba2dc8f1	-0.0006629369
49	0xbc677489	-0.014126905
50	0x3c176c87	0.0092421835
51	0x3d17a8e8	0.037026316
52	0xbc115fbd	-0.008872923
53	0xbbf9230e	-0.007603056
54	0xbc8114b8	-0.01575695
55	0xbd7b9fd4	-0.06143172
56	0xbd09c738	-0.033637255
57	0xbd1d86db	-0.038458686
58	0x3c775104	0.015094999
59	0x3cfd6d89	0.03093602
60	0x3ca97ac2	0.020688418
61	0x3cd89a90	0.026440889
62	0xbbde2593	-0.0067793815
63	0x3ccff90d	0.025387311
64	0x3cabfb48	0.020993844
65	0x3bee3e3c	0.0072706025
66	0x3cf1a4af	0.029497473
67	0x3c695222	0.014240773
68	0x3bbd2b87	0.005773011
69	0xbd726584	-0.059178844
70	0xbbaca2a8	-0.0052684136
71	0xbbbb3a6d	-0.005713752
72	0xbc86e297	-0.016465468
73	0x3c7c4813	0.015398043
74	0xbc743ca9	-0.014907041
75	0x3aec6397	0.0018035051
76	0x3bb588fe	0.0055400124
77	0x3c2599af	0.010107442
78	0xbbe826bd	-0.007084696
79	0x3d0aebbb	0.033916216
80	0x3c5475b7	0.0129675185
81	0x3c246443	0.01003367
82	0xbc57fd53	-0.013182956
83	0x3c90840d	0.017641092
84	0xbbf7be34	-0.007560516
85	0x3cb71bed	0.022352183
86	0x3d39ca5a	0.045358993
87	0x3ab6851d	0.0013925169
88	0x3ca8b2da	0.020593096
89	0x3c184b3e	0.009295283
90	0xbcbeebdf	-0.023305831
91	0xbc80ad25	-0.015707562
92	0x3c874285	0.016511211
93	0xbbab7d1c	-0.00523342
94	0x3ccf006f	0.025268761
95	0xbc06fc45	-0.008238857
96	0xbcbeb276	-0.023278456
97	0x3c66f0aa	0.014095465
98	0xbd00b35a	-0.031421043
99	0x3c063550	0.008191422
100	0x3b17c7a4	0.0023159767
101	0x3a736e34	0.0009286136
102	0xbcf1d952	-0.029522572
103	0x3ce54da5	0.027991125
104	0xbceaff4a	-0.028686184
105	0xbd2328d0	-0.039833844
106	0x3bf169d2	0.007367351
107	0xbcd0be15	-0.025481263
108	0xbb21082f	-0.0024571528
109	0xbcb03188	-0.021507993
110	0xbc843489	-0.016138332
111	0xbccd562b	-0.025065502
112	0x3cb7e685	0.022448787
113	0x3cd0786d	0.025448048
114	0x3c2d2009	0.01056672
115	0x3c86df75	0.016463974
116	0x3b1ab00b	0.0023603465
117	0x3ca4d44c	0.020120762
118	0xbca0e89e	-0.01964217
119	0x3a282faa	0.0006415794
120	0x3cef89dc	0.029240541
121	0xbce47ce5	-0.027891586
122	0x3b39560d	0.002828005
123	0xbcc46566	-0.023974132
124	0xbc491213	-0.012272376
125	0xbcdb4024	-0.026763983
126	0x3b89af38	0.004201796
127	0x3d3520d7	0.04422077
128	0xbb575f7e	-0.0032863314
129	0xbc078972	-0.008272516
130	0xbd406353	-0.046969723
131	0x3c9f4aa4	0.019444771
132	0xbcddb64b	-0.027064463
133	0xbd1528b0	-0.036415756
134	0xbc733e0d	-0.014846337
135	0x3cbb2bf9	0.022848116
136	0xbcc94439	-0.024568664
137	0xbd2c481c	-0.042060956
138	0x3ca6719a	0.020317841
139	0xbcdaefc9	-0.026725667
140	0x3b5aee5c	0.0033406233
141	0xbb830093	-0.003997871
142	0xbd8cd412	-0.06876387
143	0xbcd08f50	-0.025458962
144	0x3bddcecf	0.0067690383
145	0x3d289d31	0.041165534
146	0x3a38103a	0.0007021461
147	0xbcbd956d	-0.02314254
148	0xbd147122	-0.036240704
149	0x3d217cf7	0.039425816
150	0xbc5587d5	-0.013032873
151	0xbc8df144	-0.017326958
152	0x3c57f601	0.0131812105
153	0xbd8513bf	-0.06497907
154	0xbc05dfca	-0.008171031
155	0xbc89d563	-0.016825384
156	0x3b2e732b	0.0026618938
157	0x3b94cfae	0.004541359
158	0xbc29e2bb	-0.010368998
159	0x3ceb088b	0.028690597
160	0xbc8475fa	-0.016169537
161	0xbc9efff3	-0.019409155
162	0xb7e89c7b	-2.7729422e-05
163	0x3c0dd492	0.008656638
164	0xbb32494f	-0.002720434
165	0x3b56f5e3	0.0032800368
166	0xbc9ed8cd	-0.019390488
167	0xbb9e5c14	-0.004832754
168	0x3cadec96	0.021230977
169	0xbca64848	-0.020298138
170	0x3c9d4e42	0.019202355
171	0xbd2a7e26	-0.04162421
172	0x389cbe06	7.474054e-05
173	0x3d23ae39	0.039961074
174	0x3d2c78a8	0.042107254
175	0x39bc4ab6	0.00035913818
176	0x3a5a900c	0.00083375047
177	0x3c8daf34	0.017295457
178	0xbbc545fe	-0.0060203066
179	0xbd2ce6bd	-0.042212237
180	0xbc6b1efe	-0.014350651
181	0x3aec80b0	0.0018043723
182	0xbd1621ff	-0.036653515
183	0x3bb9f728	0.0056752153
184	0xbc9842ac	-0.01858648
185	0xbbfef23f	-0.007780343
186	0xbc6a5038	-0.014301352
187	0x3c8f6904	0.01750613
188	0xbc38173a	-0.011236006
189	0xbb40dbef	-0.0029427966
190	0xbcf70595	-0.030154029
191	0x3d3fac1a	0.04679499
192	0xbc90144d	-0.017587805
193	0x39bcca9c	0.0003600911
194	0x3cffc7a4	0.031223126
195	0xb9ff0f2c	-0.00048648694
196	0x3cce51b1	0.025185438
197	0xbb0956c2	-0.0020956253
198	0xbaeec3e8	-0.0018216344
199	0x3d0e5a0b	0.03475384
200	0xbb9eff51	-0.0048522134
201	0xb92e41a5	-0.00016618388
202	0x3c806be7	0.015676452
203	0xbc8f53cc	-0.017496012
204	0x3d613be0	0.054988742
205	0x3d042dfc	0.032270417
206	0x3cfa17a0	0.030528843
207	0x3c7dcc60	0.015490621
208	0xbd0651e4	-0.03279294
209	0x3d0ad38f	0.033893164
210	0x3c517706	0.012784725
211	0x3ca64f8b	0.0203016
212	0x3d41b42d	0.04729097
213	0x3b2e54fa	0.0026600943
214	0xbc80cf9a	-0.015723992
215	0xbbdf3efd	-0.0068129287
216	0x3bf7e8c2	0.0075655887
217	0x3d045700	0.032309532
218	0x3d03a648	0.032141
219	0xbcdd6c15	-0.027029077
220	0x3b80fc03	0.003936292
221	0x3b300b71	0.0026862288
222	0xbbc5ab02	-0.0060323486
223	0x3d2ffaa5	0.042963643
224	0xbd0c2e7d	-0.034224022
225	0xbd80e8ba	-0.06294389
226	0xbc6f369d	-0.014600423
227	0xbcd65a2d	-0.026166046
228	0xba982d28	-0.0011610137
229	0x3c898f22	0.016791884
230	0x3b392e03	0.0028256185
231	0xbc03aa6f	-0.00803624
232	0x3c54b7bc	0.012983259
233	0x3b19dba0	0.0023476854
234	0xbc859747	-0.016307486
235	0xbc446e03	-0.011989119
236	0x3c7307ed	0.014833433
237	0xbba1dc21	-0.0049395715
238	0x3c6871b7	0.014187268
239	0xbd0ffdc3	-0.035154115
240	0xb8b8f855	-8.820059e-05
241	0xbcb0559d	-0.021525199
242	0x3c349307	0.011021382
243	0xbc8e798c	-0.017391942
244	0xbbe43de3	-0.0069653853
245	0xbb8270a6	-0.003980714
246	0xbcc1b304	-0.023644932
247	0x3d0c5bef	0.034267362
248	0x3b283f53	0.002567251
249	0x3c5ad440	0.013356268
250	0xbc6ef3fa	-0.014584536
251	0xbc5f935b	-0.013645972
252	0xbad120c6	-0.0015955202
253	0xbcac9484	-0.021066912
254	0xbc0a783d	-0.008451519
255	0x3c0f34e5	0.008740638

residual_block0.0.layer1.1.weight f4 [16]
0	0x9d0abd5e	-1.8362048e-21
1	0x3eda6796	0.42657155
2	0x3eba2382	0.36355215
3	0x3ec0b1e9	0.37635735
4	0x3eeb24ee	0.45926613
5	0x3ed400f6	0.41406983
6	0x3ef8848f	0.48538634
7	0x3eb46048	0.35229707
8	0x3ec82026	0.39087027
9	0x3ed7bebd	0.4213771
10	0x3eeb486c	0.4595369
11	0x3eb13f7c	0.34618747
12	0x3f0bea19	0.5465408
13	0x3f023f97	0.5087828
14	0x3ec74df2	0.38926655
15	0x3ecb62e7	0.39723894

residual_block0.0.layer1.1.bias f4 [16]
0	0xad240807	-9.324103e-12
1	0xbdea34ef	-0.114358775
2	0x3dd21b78	0.102591455
3	0x3e55fdf8	0.20897663
4	0xbe397b3c	-0.18113416
5	0x3bc00333	0.0058597564
6	0xbf672613	-0.9029247
7	0x3e09e17b	0.1346492
8	0xbf072152	-0.5278522
9	0xbf91b5c5	-1.1383597
10	0xbd401a7e	-0.046900265
11	0x3e9c44e3	0.30521306
12	0xbf59542c	-0.8489406
13	0xbf02db87	-0.5111622
14	0xbc8b65a0	-0.017016232
15	0xbcafca85	-0.021458874

residual_block0.0.layer1.1.running_mean f4 [16]
0	0x2e20c704	3.655655e-11
1	0x3d8c9221	0.068638094
2	0xbb5c674d	-0.0033630908
3	0x3e08ae23	0.13347678
4	0x3dc3864e	0.09547101
5	0x3dabe176	0.08392613
6	0x3e6957c1	0.22787382
7	0xbd578b69	-0.052623186
8	0xbcfef7e1	-0.031124057
9	0x3b826aa0	0.003979996
10	0xbe6d854d	-0.23195381
11	0x3db4c712	0.08827032
12	0x3e3539ff	0.17697905
13	0x3e2f2ffd	0.1710815
14	0x3e1080af	0.14111589
15	0xbc1e6051	-0.009666518

residual_block0.0.layer1.1.running_var f4 [16]
0	0x1d6bb319	3.1194582e-21
1	0x3ab5cc2e	0.0013870054
2	0x3b07d096	0.0020723692
3	0x3a8f4680	0.0010931045
4	0x3ab29fb1	0.0013627914
5	0x3b194700	0.0023388267
6	0x3b00563a	0.0019582645
7	0x3a9b436f	0.0011845658
8	0x3a83f185	0.0010066485
9	0x3a93afc2	0.001126759
10	0x3b035a19	0.0020042716
11	0x3b073914	0.0020633386
12	0x3b0137e3	0.001971715
13	0x3ad6c2b2	0.0016384928
14	0x3aa8d08a	0.0012879532
15	0x3aa0d93a	0.001227177

residual_block0.0.layer2.0.weight f4 [32, 16, 1, 1]
0	0x2613ed3a	5.132237e-16
1	0x3aa36987	0.0012467363
2	0xbce28c8a	-0.027654905
3	0xbcf200b4	-0.02954135
4	0xbab97beb	-0.001415131
5	0x3ccd885c	0.025089435
6	0x3a78e83c	0.0009495055
7	0x3c106035	0.008812
8	0xbac747a7	-0.0015203849
9	0xbc43e0c6	-0.011955446
10	0xbcbb8376	-0.022889834
11	0x3c2a22c1	0.010384263
12	0x3d084c19	0.033275697
13	0x3d521e37	0.051298346
14	0xbc21aab9	-0.009867364
15	0x3aaa0b4f	0.0012973341
16	0x940a0930	-6.9690314e-27
17	0xb1fc999f	-7.35163e-09
18	0xb3e43f27	-1.0628565e-07
19	0x3035c963	6.6133604e-10
20	0xb2ca618f	-2.356026e-08
21	0x2f041837	1.2013933e-10
22	0xb1aa2529	-4.951876e-09
23	0xb1f3999a	-7.0896933e-09
24	0xb0cf54e0	-1.5085355e-09
25	0x3072fdbb	8.839966e-10
26	0x32ed3f5b	2.7619242e-08
27	0xb21181b0	-8.469598e-09
28	0xb11cb3a8	-2.280311e-09
29	0xb0babe19	-1.358731e-09
30	0xb03f683a	-6.963351e-10
31	0xb2eecaba	-2.7799036e-08
32	0x21711396	8.16799e-19
33	0x3cbd0f04	0.02307845
34	0x39b55ecd	0.00034593642
35	0x3c903fe7	0.017608596
36	0x3ceba150	0.028763443
37	0xbc26513b	-0.010151203
38	0xbca27123	-0.019829338
39	0x3cc474bd	0.023981446
40	0xbbfd15ad	-0.007723531
41	0xbccb72ca	-0.02483501
42	0xbce8f0f4	-0.028435208
43	0x3b537c9c	0.0032270318
44	0xbc6ffd11	-0.014647738
45	0x3c723214	0.014782447
46	0x3d1a80b8	0.037720412
47	0x3b7e7aaf	0.003883045
48	0x22a4c8be	4.4664833e-18
49	0xbc26e404	-0.010186199
50	0xbc27522c	-0.010212462
51	0xbd1dfeb9	-0.038573
52	0x3c70dc17	0.014700911
53	0x3c2b1db5	0.010444094
54	0x3b737a76	0.003715185
55	0xbd78bf68	-0.060729414
56	0x3d291b52	0.04128582
57	0x3c331d0f	0.010932221
58	0xb9699cb2	-0.00022278985
59	0xbcaea34c	-0.0213181
60	0xbc89c09c	-0.016815476
61	0x3cb4ded7	0.022078915
62	0xbba040d8	-0.0048905425
63	0xbcd5ca0a	-0.026097316
64	0xa044a44e	-1.665621e-19
65	0x3c70c112	0.014694469
66	0xbc9e96eb	-0.019359073
67	0xbb49c0b1	-0.003078502
68	0x3cfab3bb	0.03060328
69	0xbc62e0e2	-0.013847562
70	0xbc896409	-0.016771333
71	0xbd37c8b7	-0.04486915
72	0xbc930446	-0.017946374
73	0xbc93fa75	-0.018063763
74	0xbd0316b9	-0.032004092
75	0xbcc70efb	-0.024299135
76	0x3c259023	0.010105166
77	0x3b47cdfa	0.0030487762
78	0xbbce6ee3	-0.00629984
79	0x3bb21766	0.005434918
80	0xa081d9e5	-2.199764e-19
81	0x3d805178	0.06265539
82	0xbc604251	-0.013687686
83	0x3a0aeb8c	0.00052993814
84	0x3cc1ecd7	0.023672504
85	0x3c23d297	0.009998939
86	0x3c0d8e80	0.008639932
87	0xbd01ab05	-0.031657238
88	0xbc2934b7	-0.01032751
89	0xbb59e3ba	-0.0033247308
90	0xbd0d841e	-0.034549825
91	0xbcb1c8fc	-0.021702282
92	0xbbdd5dba	-0.006755558
93	0x3c08099c	0.008303072
94	0x3bbf03dc	0.0058293175
95	0xbb11f069	-0.002226854
96	0x1cba3826	1.2322962e-21
97	0xbb025113	-0.001988475
98	0x37d7853d	2.5692041e-05
99	0xb9881920	-0.0002595866
100	0xba0e5161	-0.00054289965
101	0x38176a43	3.610017e-05
102	0xb885a9f5	-6.373591e-05
103	0xb941b720	-0.00018474134
104	0xba3010dc	-0.00067163794
105	0x38e53b93	0.000109306675
106	0xbae26274	-0.0017271773
107	0x3a66fe62	0.00088117097
108	0xb977e1c5	-0.00023639861
109	0x397732d0	0.00023574685
110	0xb973fc63	-0.00023268307
111	0x3a2c8a03	0.00065818446
112	0x2a262adc	1.4758632e-13
113	0xbca2f063	-0.019890016
114	0xbbb6eeec	-0.005582681
115	0xbd1ca36d	-0.038241792
116	0xbb6377b4	-0.00347088
117	0xbbe8b9eb	-0.0071022413
118	0x3ccd9b43	0.025098449
119	0x3996b149	0.00028742317
120	0xbd066cc7	-0.032818582
121	0x3d142cd9	0.036175583
122	0xbc406dac	-0.011744898
123	0x3c6e496e	0.014543874
124	0x3cf8b221	0.030358376
125	0x3c741d3b	0.014899547
126	0xbae81b3c	-0.0017708312
127	0x3d0b07f4	0.03394313
128	0xa8af0600	-1.9431505e-14
129	0x3b629a6b	0.0034576904
130	0x3ac9eaa7	0.0015405015
131	0x3c94b286	0.018151533
132	0x3da21a71	0.079151995
133	0xbc1db4b6	-0.009625604
134	0x3bac8061	0.0052643274
135	0xbd62ad33	-0.055340957
136	0x3c5b68ff	0.013391732
137	0x3c0d2644	0.00861508
138	0xbafd0772	-0.0019304587
139	0x3c195963	0.00935969
140	0xbb19137b	-0.0023357559
141	0x3accc1e1	0.0015621745
142	0x3d2f9a1d	0.042871583
143	0xbc89de2a	-0.016829569
144	0x20b48d75	3.0586795e-19
145	0xbc2d62d0	-0.010582641
146	0xbbac2e46	-0.0052545397
147	0x3bb12066	0.0054054735
148	0xbc98e78a	-0.018665094
149	0x3cd488b1	0.025944086
150	0xbc5f15e9	-0.013616064
151	0x3d5f3be6	0.054500483
152	0x3c87b00f	0.016563443
153	0xbccb3ec8	-0.02481021
154	0x3c71586c	0.014730554
155	0x3c301109	0.010746249
156	0xbb58e82d	-0.0033097372
157	0xbce3dfe1	-0.027816715
158	0x391c6bd6	0.00014917491
159	0x3b77411f	0.0037728024
160	0xa58a5516	-2.399684e-16
161	0x3be072b1	0.00684961
162	0xbc91217e	-0.017716166
163	0xbca513fc	-0.02015113
164	0x3d0d2630	0.034460247
165	0x3d066e30	0.032819927
166	0xbc806828	-0.015674666
167	0xbd21ea09	-0.039529834
168	0xbc5f0284	-0.01361144
169	0xbd05b0db	-0.032639366
170	0xbc67942a	-0.014134446
171	0xbb18cb3e	-0.00233145
172	0x3ccada9d	0.024762446
173	0xbc0f3ebe	-0.008742986
174	0x3cc57ba8	0.024106815
175	0x3c865f8b	0.01640298
176	0x2a907a4b	2.5664396e-13
177	0xbc24aa6b	-0.010050396
178	0xbcc16354	-0.023606934
179	0xbbce65c9	-0.006298755
180	0x3cd190dd	0.025581772
181	0xbcc01469	-0.023447232
182	0xbb1392a3	-0.0022517822
183	0xbd341b40	-0.0439713
184	0xbd014ed2	-0.03156931
185	0xbb21f38d	-0.0024711818
186	0xbcc06aee	-0.023488488
187	0x3b3781a3	0.0028000853
188	0x3d22c59d	0.03973924
189	0x3d6cde90	0.05782944
190	0x3c8433ef	0.016138045
191	0xbc47db33	-0.012198257
192	0xa24f2658	-2.807403e-18
193	0xbcc02840	-0.023456693
194	0x3bc97aa8	0.006148655
195	0x3c2c70e1	0.010524959
196	0xbb756f86	-0.0037450506
197	0x3cd43347	0.025903357
198	0x3d602de5	0.05473127
199	0xbc0449f7	-0.008074275
200	0xbd063a3f	-0.03277039
201	0x3aa4c21e	0.0012570058
202	0xbb65cc07	-0.0035064237
203	0xbd1e2164	-0.038606063
204	0x38c300fb	9.298507e-05
205	0x3d9147d2	0.07093777
206	0x3b2fef57	0.0026845539
207	0xbc5cef5e	-0.013484804
208	0x9e4725d0	-1.0542792e-20
209	0xba8e6905	-0.0010865038
210	0xbc7ea9d4	-0.01554342
211	0x3b8973c9	0.004194711
212	0x3c6d957c	0.014500972
213	0x3a203807	0.00061118643
214	0x3bd6ada0	0.0065514594
215	0x3b67d053	0.0035371974
216	0xbc1956bb	-0.009359057
217	0xbc94d6f4	-0.018168904
218	0xbca58afb	-0.020207873
219	0x3c804c04	0.015661247
220	0x3cf42871	0.02980444
221	0x3c9ad4cf	0.018900303
222	0x3ca1bc65	0.019743154
223	0x3ce08c85	0.027410755
224	0x218c787d	9.518662e-19
225	0x3a4d65fa	0.0007835325
226	0xbc9b899e	-0.01898652
227	0xbc93f5cd	-0.018061543
228	0x3bbb7164	0.0057203043
229	0x3cbca95e	0.02302998
230	0xbc757196	-0.014980694
231	0xbd4606bd	-0.04834627
232	0xbd33a0e3	-0.043854605
233	0xbd1784a8	-0.036991745
234	0xbc6dd1f3	-0.014515388
235	0xbce10deb	-0.027472457
236	0xbb5b99fb	-0.0033508528
237	0xbc05d358	-0.008168064
238	0xbc2de55e	-0.010613767
239	0x3bd71375	0.0065635988
240	0x1fddb901	9.3903204e-20
241	0x3c17ce8a	0.009265551
242	0xbc189de3	-0.009314987
243	0xbbe73f9b	-0.007057143
244	0x3d09d61a	0.03365145
245	0x3ca24944	0.019810326
246	0xbd036c74	-0.03208585
247	0xbbcc0079	-0.0062256423
248	0xbc8613a3	-0.016366785
249	0xbd0758b8	-0.033043593
250	0xbcbc16e3	-0.022960132
251	0x3b0091ba	0.001961811
252	0x3c95dad4	0.018292822
253	0x3c2d29f0	0.010569081
254	0x3c7e92e3	0.01553795
255	0x3d00fa55	0.031488735

residual_block0.0.layer2.1.weight f4 [32]
0	0x3eb82995	0.35969225
1	0x32fd81c7	2.9512092e-08
2	0x3ece8162	0.40333086
3	0x3ed367ad	0.41290036
4	0x3e99f50d	0.3006977
5	0x3ed4117a	0.41419584
6	0x3b77f251	0.003783364
7	0x3ef81c5e	0.48459142
8	0x3efb4fd6	0.49084347
9	0x3e888aa9	0.2666829
10	0x3ed3b294	0.41347182
11	0x3ef1a4a7	0.47195932
12	0x3eeed3da	0.46646005
13	0x3e2cc4f9	0.16872014
14	0x3ea69fd5	0.32543817
15	0x3eb07094	0.3446089
16	0x3eed02a5	0.4629108
17	0x3eb0517a	0.34437162
18	0x3ea9468d	0.33061638
19	0x3ebdf27f	0.37099072
20	0x3ecb9be8	0.39767385
21	0x3ec6dc7d	0.38840094
22	0x3ece99cf	0.40351722
23	0x3eb02d9d	0.344098
24	0x3e5c69d5	0.21524747
25	0x3ebaa0aa	0.36450702
26	0x3ef6da82	0.48213583
27	0x3ec2b1e9	0.3802636
28	0x3e851c50	0.25998163
29	0x3ed05b33	0.4069458
30	0x3eaf320b	0.34217867
31	0x3ed17e7e	0.40916818

residual_block0.0.layer2.1.bias f4 [32]
0	0x3e5710be	0.2100248
1	0xb7d894d0	-2.5818503e-05
2	0x3d9e9464	0.07743147
3	0xbd01f884	-0.031731144
4	0xbd3e6d09	-0.046490703
5	0xbd1fcb1e	-0.039012067
6	0xba49367a	-0.0007675659
7	0xbea8c603	-0.3296357
8	0xbdec6bc2	-0.11543991
9	0x3d8380c5	0.06421045
10	0xbe3202f1	-0.17383935
11	0xbdeef4be	-0.116677746
12	0xbdf1f661	-0.11814571
13	0xbe444ce6	-0.1916996
14	0x3d94a015	0.07257096
15	0xbcfd46be	-0.030917522
16	0xbe917545	-0.28409782
17	0xbcaea284	-0.021317728
18	0x3dba1dc0	0.090877056
19	0xbbe984b3	-0.0071264147
20	0xbce288b3	-0.027653074
21	0x3d8c2914	0.068437725
22	0x3ed5502f	0.41662738
23	0x3ed0ea09	0.40803555
24	0x3cc3ef39	0.023917781
25	0xbd4a5590	-0.049398005
26	0xbea049ab	-0.31306204
27	0xbc481ba9	-0.012213626
28	0xbd5db4b4	-0.05412741
29	0x3eeefa4e	0.46675342
30	0x3ccd3be8	0.02505298
31	0x3d8fe46a	0.070259884

residual_block0.0.layer2.1.running_mean f4 [32]
0	0xbbf802b8	-0.0075686835
1	0xb2c954c1	-2.3438021e-08
2	0x3c62ba4e	0.013838364
3	0xbd130181	-0.035890106
4	0xbcdb843e	-0.026796456
5	0xbc74d220	-0.014942676
6	0xb8a050d0	-7.644447e-05
7	0xbbeaae5c	-0.0071618985
8	0x3a91bdb1	0.0011119155
9	0x3cb11747	0.021617545
10	0xbc160893	-0.009157318
11	0xbca67118	-0.0203176
12	0xbc38050c	-0.011231672
13	0x3c02e3a0	0.00798884
14	0xbce03c04	-0.027372368
15	0x3b45e769	0.0030197746
16	0xbc2e9cb5	-0.010657479
17	0xbce40afe	-0.027837273
18	0xbc3c8926	-0.011507308
19	0x3b9186b8	0.0044411086
20	0xbc870aee	-0.016484704
21	0xbcd36caf	-0.02580866
22	0x3c5bd66b	0.01341782
23	0xbc781b0d	-0.015143168
24	0xbc8a60ab	-0.016891798
25	0xbc8aac69	-0.016927915
26	0xbc6d870e	-0.014497532
27	0xbc28aa9b	-0.010294582
28	0x3af2ab5c	0.0018514204
29	0xbcb7c029	-0.022430496
30	0x3c8e2dc1	0.017355802
31	0x3c04ebe9	0.008112886

residual_block0.0.layer2.1.running_var f4 [32]
0	0x39b353a1	0.0003420385
1	0x26376640	6.3629454e-16
2	0x39a6b85d	0.0003179935
3	0x399b1fa7	0.00029587487
4	0x3985a7ed	0.0002549285
5	0x39b905d3	0.0003529029
6	0x3584d1a2	9.895778e-07
7	0x38a44c7c	7.834376e-05
8	0x398936b3	0.0002617143
9	0x39662e2a	0.00021951707
10	0x3928741c	0.00016064983
11	0x3989a8dd	0.0002625649
12	0x391eb22d	0.0001513443
13	0x39afa54b	0.00033501754
14	0x3918f47c	0.00014586927
15	0x398531e7	0.00025404917
16	0x39ac045e	0.0003280965
17	0x39b9043c	0.00035289105
18	0x385ded76	5.291166e-05
19	0x39c9dcd6	0.00038502243
20	0x39a7e899	0.0003202602
21	0x398e95c9	0.0002719595
22	0x392cb192	0.00016469348
23	0x39b6117a	0.00034726766
24	0x39760276	0.00023461305
25	0x38a6516c	7.930663e-05
26	0x39d2a410	0.00040176557
27	0x393cfb58	0.0001802271
28	0x399e7fca	0.0003023132
29	0x390032b5	0.00012225921
30	0x39b82033	0.00035119205
31	0x3817abfe	3.6161386e-05

residual_block1.0.layer1.0.weight f4 [16, 32, 3, 3]
0	0x3d2debb6	0.04246112
1	0x3ced9a98	0.02900438
2	0x3c12355f	0.0089238575
3	0xbbcc9e92	-0.006244489
4	0xbc227f16	-0.009917995
5	0xbbbd6c83	-0.005780758
6	0xbc61c0f9	-0.013778918
7	0xbc62f225	-0.013851677
8	0xbbca4db6	-0.0061738146
9	0x3cc9fd01	0.024656774
10	0x3cf41e89	0.029799717
11	0xbc787a59	-0.015165889
12	0x3c67d9b9	0.01415103
13	0xbab56f80	-0.0013842434
14	0xbd348b69	-0.044078264
15	0xbdb46ccc	-0.08809814
16	0xbd90bfba	-0.07067819
17	0xbcadaf79	-0.021201836
18	0x3cc87590	0.02447012
19	0x3c7113c1	0.014714182
20	0x3c34d7a0	0.011037737
21	0x3c46a2ab	0.012123744
22	0xbb34ad18	-0.0027568992
23	0xbc88694d	-0.016651774
24	0xbc4858e9	-0.012228229
25	0xbc99a10f	-0.018753557
26	0x3b95c541	0.0045706336
27	0x3d051795	0.032493193
28	0xbc04f60b	-0.008115302
29	0xbbc783e5	-0.006088721
30	0xbc678ef4	-0.014133204
31	0xbc6778eb	-0.01412795
32	0xbbe82949	-0.0070849997
33	0x3bce20a7	0.0062905136
34	0x3d13dd99	0.036100004
35	0x3c234b01	0.009966613
36	0x3c85027d	0.016236538
37	0x3c4de47c	0.012566682
38	0x3c6c5d03	0.014426473
39	0xba7c0cc2	-0.0009614938
40	0xbbf05f19	-0.0073355553
41	0xbd0a168e	-0.033712916
42	0xbc974f34	-0.018470384
43	0xbc84c538	-0.016207322
44	0x3bac4f5d	0.0052584843
45	0xbbfc0c37	-0.007691886
46	0xbc379215	-0.011204262
47	0xbc3ba6d3	-0.011453348
48	0xbc094c71	-0.008380041
49	0x3b06c3e8	0.0020563547
50	0xbc713b5c	-0.014723625
51	0xbd525382	-0.05134917
52	0xbd276fc8	-0.040878087
53	0xbd1247ab	-0.03571288
54	0x3d037027	0.03208938
55	0x3cfe685c	0.031055622
56	0x3d190051	0.037353817
57	0x3c4005f0	0.011720166
58	0x3c338a24	0.010958228
59	0xbb5968b7	-0.0033173987
60	0xbd16cd4e	-0.036816888
61	0xbd64ebad	-0.05588882
62	0xbb9129d1	-0.0044300337
63	0xbd0d28ec	-0.034462854
64	0xbbc61256	-0.0060446663
65	0xbb636bce	-0.0034701708
66	0xbb2d25d9	-0.0026420264
67	0xbcbf2468	-0.02333279
68	0xbc3a7d89	-0.011382469
69	0x3c46e31c	0.012139108
70	0x3c2bc276	0.010483375
71	0x3c0b0181	0.008484245
72	0x3d01b773	0.03166909
73	0x3cd9e6ea	0.026599366
74	0x3c842af8	0.01613377
75	0x3c3268bc	0.010889228
76	0x3c6247f4	0.0138111
77	0xbcb4042e	-0.02197465
78	0xbb9096fd	-0.0044125305
79	0xbbd0ed90	-0.006375976
80	0xbc0e01da	-0.008667434
81	0x3c73b70f	0.014875188
82	0x3d33ffdd	0.043945182
83	0x3cf11428	0.029428557
84	0x3d0965e3	0.033544432
85	0x3d41201f	0.047149774
86	0x3cfda438	0.030962095
87	0xbacd3fc6	-0.0015659265
88	0x3be0babc	0.006858198
89	0x3a04b46e	0.00050622865
90	0xbcbe91e9	-0.023262935
91	0xbc3c2cf0	-0.011485323
92	0xbd26910f	-0.040665682
93	0x3c469bf1	0.01212214
94	0xbb1b3fb5	-0.0023689095
95	0xbd295e18	-0.0413495
96	0xbcb840a9	-0.02249177
97	0xbccdb251	-0.025109442
98	0xbd4c0ea0	-0.049818635
99	0x3c0528ea	0.00812743
100	0x3c890a3b	0.016728511
101	0xbbd9cef1	-0.006646984
102	0x3c9521f2	0.018204663
103	0x3d029a04	0.031885162
104	0xbb315429	-0.002705822
105	0xbd22d5b3	-0.03975458
106	0xbc8eb39b	-0.017419627
107	0xbd364634	-0.044500545
108	0xbc823926	-0.015896391
109	0xbb9aaa78	-0.0047200285
110	0xbc503e54	-0.012710173
111	0x3cd86fe7	0.026420547
112	0x3c6ed837	0.014577917
113	0xbc94f3c8	-0.01818265
114	0x3c9635df	0.018336235
115	0x3c1bc17e	0.009506581
116	0xbce20d1e	-0.027594145
117	0xbc9c0209	-0.01904394
118	0x3c0f2dc7	0.0087389415
119	0x3bba13f0	0.0056786463
120	0xbc2fd2d1	-0.010731415
121	0x3c32176d	0.010869843
122	0xbcb22c87	-0.021749748
123	0xbc470493	-0.012147087
124	0xbc306b13	-0.010767716
125	0xbc39a0aa	-0.011329809
126	0x3ca460d1	0.020065697
127	0x3b3d7800	0.0028910637
128	0xbad5235e	-0.0016261151
129	0x3c217fff	0.009857177
130	0x3bfc8c91	0.0077071865
131	0xbc1de013	-0.009635943
132	0xbc559057	-0.013034902
133	0xbca5cab5	-0.02023826
134	0xbd25c66a	-0.040472426
135	0x3cb71af2	0.022351716
136	0x3c547d2e	0.012969298
137	0x3c366a7a	0.011133784
138	0x3ae15ae9	0.0017193231
139	0xbc198529	-0.009370127
140	0xbcc85ee4	-0.02445931
141	0xbc4c9da1	-0.012488754
142	0xbc9e989d	-0.019359881
143	0xbbbfe4b6	-0.005856122
144	0x3cbcef5e	0.023063358
145	0xbb9bef03	-0.004758717
146	0xbcfcf3b4	-0.030877925
147	0x3c5e6b4c	0.013575386
148	0xbbeb09e3	-0.0071728094
149	0x3cc8daf3	0.024518466
150	0xbd0815ca	-0.033223905
151	0xbbef1073	-0.007295662
152	0x3cc1767f	0.023616074
153	0xbcafae22	-0.021445338
154	0xbb3fd49a	-0.0029271008
155	0xbc800817	-0.015628858
156	0xbd04fb48	-0.032466203
157	0xbc99e53c	-0.018786065
158	0xbc98003d	-0.018554801
159	0xbb12cacc	-0.0022398708
160	0x3ad48cea	0.0016216312
161	0xbc17a2c1	-0.009255112
162	0x3bb019ff	0.0053741927
163	0x3c06a044	0.008216921
164	0xbc027010	-0.007961288
165	0x3cc9a57c	0.024615042
166	0xbb843983	-0.0040351762
167	0xbc604f4e	-0.013690783
168	0x3b6d3666	0.0036195754
169	0x3c551b1b	0.013006951
170	0x3c20ad72	0.009806978
171	0x3cbf2540	0.023333192
172	0xbc2d3355	-0.010571321
173	0x3c5868b5	0.013208558
174	0x3d56ec4e	0.05247145
175	0x3c8b218d	0.016983772
176	0x3c09a239	0.008400493
177	0xbc3dc67c	-0.011582967
178	0x3bc54f98	0.006021451
179	0x3c787245	0.015163963
180	0xba60266f	-0.0008550649
181	0x3bb82c15	0.0056204894
182	0x3bbe4070	0.0058060214
183	0x3c5e032e	0.013550563
184	0x3c8452e3	0.016152805
185	0xbc8530b9	-0.016258584
186	0xbb868732	-0.004105472
187	0xbbdc14d3	-0.0067163496
188	0xbc3ba090	-0.011451855
189	0x3d03609a	0.03207455
190	0x3cbbe054	0.022934116
191	0x3b8d7dfd	0.0043179975
192	0xbcb95822	-0.022625033
193	0xbcfd3a0c	-0.030911468
194	0xbbf07619	-0.007338297
195	0xbd19b582	-0.037526615
196	0xbb746ea1	-0.0037297385
197	0x3b93f2e5	0.0045150393
198	0xbbc2f015	-0.00594903
199	0xbbf0b99f	-0.0073463465
200	0x3c71374e	0.014722658
201	0x3d264a10	0.040597975
202	0x3c4ec768	0.012620784
203	0x3c4f6881	0.012659193
204	0x3be4ed55	0.0069863
205	0x3a43b9fe	0.00074663747
206	0x3cab084b	0.020877978
207	0xbc4766ab	-0.012170474
208	0x397273c4	0.00023122045
209	0x3b77aa38	0.0037790667
210	0xbb50aa57	-0.0031839812
211	0x3bb1a55c	0.0054213237
212	0x3be8ec00	0.0071082115
213	0x3cc5c25a	0.024140526
214	0x3ac2177b	0.0014808023
215	0x3c8af578	0.016962752
216	0x3d1e0f04	0.03858854
217	0x3ce891c7	0.028389825
218	0xbc80215e	-0.01564091
219	0x3c285cbb	0.010276015
220	0xbca2a4f6	-0.01985405
221	0xbcff9809	-0.031200426
222	0xbc9b2248	-0.018937245
223	0xbcfb6201	-0.03068638
224	0xbc0a0438	-0.008423857
225	0xbc617cc6	-0.013762658
226	0xbc15492d	-0.009111685
227	0x3c776a99	0.015101098
228	0xbaae3961	-0.0013292247
229	0x3bcadad8	0.006190639
230	0xba94301c	-0.0011305842
231	0x3c2ddb19	0.010611319
232	0xbc609c01	-0.013709069
233	0xb8c97b63	-9.6074094e-05
234	0xbd2ea282	-0.04263545
235	0xbd0790d4	-0.033097103
236	0xbc61e9aa	-0.01378862
237	0xbc401fcc	-0.011726331
238	0xbd2b8ee4	-0.041884318
239	0xbcc67af2	-0.024228547
240	0x3cb6b4a1	0.022302927
241	0x3b8d49b7	0.004311766
242	0x3c1e7bf1	0.009673105
243	0x3cda73db	0.026666572
244	0x3d1ac915	0.037789423
245	0x3d3a7249	0.045519147
246	0x3ccfcf5e	0.025367435
247	0x3ca8057a	0.020510424
248	0xbcf01c0f	-0.029310254
249	0x3bc22a84	0.0059254784
250	0x3ba51ff3	0.005039209
251	0xb922a0ce	-0.00015509428
252	0x3cc36a57	0.023854418
253	0x3d00d7fd	0.031455982
254	0x3be16db4	0.0068795327
255	0x3c98ebea	0.01866718

residual_block1.0.layer1.1.weight f4 [16]
0	0x3f0c731d	0.5486315
1	0x3f16fd2c	0.5898006
2	0x3f18837a	0.5957562
3	0x3f124a49	0.571446
4	0x3f17f036	0.5935091
5	0x3f0c1b86	0.547295
6	0x3f162e99	0.5866485
7	0x3f1e89a8	0.61928797
8	0x3f1508ca	0.58216536
9	0x3f11d60b	0.5696723
10	0x3f0f69ab	0.5602061
11	0x3f1f1b93	0.6215145
12	0x3f104fb8	0.5637164
13	0x3efc1240	0.49232674
14	0x3f22013c	0.63283134
15	0x3f2180e8	0.6308732

residual_block1.0.layer1.1.bias f4 [16]
0	0xbf4fd263	-0.811804
1	0x3f04678e	0.5172051
2	0x3ed2af1a	0.41149217
3	0xbe8a909a	-0.27063447
4	0xbef84c3f	-0.4849567
5	0x3f78bc23	0.97162074
6	0xbd4d35d7	-0.050100174
7	0xbfe12ccb	-1.7591795
8	0xbcbb812f	-0.022888748
9	0x3ee1d83e	0.44110292
10	0x3ea515ba	0.3224314
11	0x3fd9fc80	1.7030182
12	0xbcd2488b	-0.025669357
13	0xbf45ca6f	-0.77262014
14	0xbe8f169f	-0.27946946
15	0x3df33c31	0.11876715

residual_block1.0.layer1.1.running_mean f4 [16]
0	0xbf23a1b6	-0.63918626
1	0xbe2401e4	-0.16016346
2	0xbea58b56	-0.32332867
3	0x3e39c5ca	0.18141857
4	0xbebdb8ae	-0.37054962
5	0xbf595a9f	-0.849039
6	0xbe7f26eb	-0.2491719
7	0xbf827e61	-1.0194818
8	0x3e4e08e5	0.2012058
9	0x3df87f3e	0.121336445
10	0x3e131236	0.14362416
11	0x3e585921	0.2112775
12	0x3c06180c	0.008184444
13	0xbf38f0f6	-0.7224268
14	0x3d2efb78	0.042720288
15	0xbdc06c12	-0.09395613

residual_block1.0.layer1.1.running_var f4 [16]
0	0x3cdf7862	0.027279083
1	0x3d1934ac	0.037403747
2	0x3cc88a66	0.024480056
3	0x3cb4a2ad	0.022050226
4	0x3cb9e432	0.02269182
5	0x3d14da06	0.036340736
6	0x3c8fa03f	0.017532466
7	0x3d7b554a	0.061360635
8	0x3cdf3524	0.02724702
9	0x3cea2767	0.028583242
10	0x3ce70ec1	0.028205277
11	0x3de6a3b5	0.112616934
12	0x3d7f2349	0.06228951
13	0x3d18b5d9	0.0372828
14	0x3d127791	0.03575856
15	0x3ce63279	0.02810024
